double_dqn_weights.pth (torch_old, 41473 bytes, 6 tensors)

fc1.weight f4 [96, 37]
000000 78 4f 12 3e 10 18 74 bd cc 20 9d be 4a 07 15 3e
       0.14288127 -0.05959326 -0.30689085 0.14553562
000010 f2 1d 79 be 6a 40 d6 3d d7 df a1 be 02 5a 4a 3d
       -0.2432783 0.10461505 -0.3161609 0.049402244
000020 d2 23 42 3d c2 ad 16 bf a5 52 74 bc f9 42 dd 3d
       0.047397442 -0.58858883 -0.014912282 0.1080379
000030 0e 9c 98 bc c6 ff 80 3c c3 a4 42 be 44 be ad 3c
       -0.0186291 0.015746962 -0.19008164 0.02120889
000040 ea 7a 91 be e8 11 2b 3d 8a 82 6b 3e 3c 9d 52 3c
       -0.28414088 0.041765124 0.22999015 0.01285487
000050 ea 82 4c bd ea 8b 2f bd 7e 98 3b be c5 07 95 bd
       -0.049929537 -0.04285804 -0.1831989 -0.072768725
000060 92 66 fd be 38 3e 89 3d 42 ba 9f bd 00 8d 7c bc
       -0.49492317 0.067013204 -0.07799198 -0.015414476
000070 33 24 af bd 68 77 94 3d 88 9f 46 3c b3 4a d6 3c
       -0.08551826 0.072493374 0.012122996 0.026158666
000080 42 6e 3b 3e c9 61 92 be e6 5c e9 bf 45 07 14 3e
       0.18303779 -0.2859023 -1.8231475 0.14455898
000090 45 f9 0c 3d c5 27 e3 3d ca 79 89 3d 08 dd cc 3d
       0.03441741 0.1109157 0.067126825 0.10003096
0000a0 cb 15 d8 3d 3e 89 6c 3c d9 f4 fe 3e b2 6b 29 bf
       0.10551032 0.014437018 0.4979618 -0.66179955
0000b0 c6 d5 3c bf ca 20 1e bf c2 cf 18 c0 09 19 3a 3d
       -0.7376369 -0.6176878 -2.3876805 0.04543403
0000c0 c2 58 37 3d 2c 74 66 3d 9e 8a f8 3c 4f f2 12 bd
       0.04476238 0.056263134 0.030339535 -0.035875615
0000d0 a9 c8 2c 3e a8 00 1a 3e 5c a1 35 3e 16 0f 21 3e
       0.16873421 0.15039313 0.17737335 0.15728411
0000e0 51 b7 bb bb c1 b9 08 3d d2 3d 46 3d 1d 77 88 3d
       -0.00572864 0.033380274 0.0483988 0.06663344
0000f0 00 1d 79 3d 19 3f be 3c cb e7 10 3e ee 5a 14 3e
       0.060818672 0.023223447 0.14150922 0.14487812
000100 f1 13 0e 3e ae 82 fd 3d 2f af 5f bc e2 b5 bb 3d
       0.13874795 0.12378441 -0.013652607 0.09165551
000110 f7 bf 32 3d e7 70 98 3d bd 6a bf 3d 16 4b 13 bc
       0.043640103 0.074434094 0.093465306 -0.00899007
000120 80 6f b9 3b bf 94 ba 3b 69 c8 d8 3d d6 bb 7f 3d
       0.005659044 0.0056940014 0.105851 0.062434994
000130 96 e9 d9 bd f2 e9 36 3e 7c 44 ce 3d 6c 79 a6 3d
       -0.10640256 0.1786268 0.10071656 0.08128628
000140 df 72 9f be f9 81 04 3d 41 7c 84 bd e0 88 b2 be
       -0.31142327 0.032350514 -0.06469012 -0.34870052
000150 25 1d 3e 3d 59 09 48 3d 10 16 97 bd b4 a6 20 be
       0.046414513 0.04883704 -0.07377255 -0.15688592
000160 b9 4a 3d be dd dd 6b 3e 12 b4 55 be d7 0a d7 bd
       -0.18485536 0.23033853 -0.20869473 -0.105001144
000170 95 4a 50 be 68 e7 18 bf 37 e9 13 be fb 44 e3 bd
       -0.20340951 -0.597281 -0.14444433 -0.11097141
000180 f0 3d d8 3d 75 29 35 3d d0 b4 49 bd f6 82 4a 3d
       0.10558689 0.04422899 -0.0492447 0.0494413
000190 73 c9 bb bc d5 93 0f bd e4 cd 0d 3c d5 f6 4a be
       -0.022923207 -0.035053093 0.008655045 -0.19820721
0001a0 30 45 08 be 0e dc 63 bd 87 e9 4d 3d c1 cd 30 3e
       -0.13307643 -0.055629782 0.050271537 0.17265989
0001b0 00 11 8d 3e 46 a1 1a bd 21 42 91 bc cc 79 0c 3e
       0.27552032 -0.03775146 -0.017731728 0.13718337
0001c0 27 f9 5e 3c 3a 81 78 bd 4d 52 5b 3d 47 66 7a be
       0.013609207 -0.060670115 0.053545285 -0.24453078
0001d0 99 68 97 bc 29 a0 89 3e 61 82 e4 3d 25 b7 92 be
       -0.018482493 0.26880005 0.1115768 -0.28655353
0001e0 36 49 af bf 71 c0 a3 3d 87 8a 3b 3d 3c 6f 08 bd
       -1.3694217 0.0799569 0.045786407 -0.033309206
0001f0 de 17 b5 bb 6d ae b5 bd 04 bf db bd 68 98 ad 3b
       -0.005526527 -0.0887116 -0.10729793 0.0052977093
000200 ac d6 8b 3d 68 13 bd bb a6 50 f0 bd 0d b5 0d 3e
       0.06828055 -0.0057701357 -0.117341325 0.13838597
000210 b7 46 b7 3d 29 52 6e 3d 5b fa 92 3c 12 e5 5f 3e
       0.08949035 0.058183823 0.017941644 0.21864727
000220 7f ab a0 3c 91 50 81 be 6f 38 5b 3d f9 6f 83 be
       0.019613026 -0.2525678 0.053520616 -0.25671366
000230 30 30 2d c0 22 a8 c7 bd e2 58 a6 bd 7f da d9 ba
       -2.7060661 -0.09748866 -0.08122422 -0.0016620903
000240 f2 2b 08 3e 1b 76 ff 3d 0a 4a 3e 3d 84 cd ca 3c
       0.13298014 0.12473699 0.046457328 0.0247562
000250 2f 39 39 3e 28 82 09 bd 77 06 09 bd d2 7b 5c 3c
       0.1808822 -0.033571392 -0.03345343 0.013457255
000260 fb db 2f be fb 77 45 bd 5c 54 ab bd cf 03 b4 bd
       -0.1717376 -0.048210125 -0.083657 -0.08789789
000270 a3 3e 91 be 6f 40 2a bd bc 26 3b 3e 21 65 b6 be
       -0.283681 -0.041565355 0.18276495 -0.3562403
000280 91 7c ad bd f5 50 8a 3d db 48 30 be 95 ec 57 3e
       -0.08471025 0.067537226 -0.17215292 0.21086343
000290 af 87 0f be 96 da a1 3d 9c a8 44 bf b6 5c a1 be
       -0.14016603 0.0790302 -0.7681978 -0.31516045
0002a0 1a fb fb bd 12 34 9e be 66 f8 e5 3c 20 bd 4c bc
       -0.12303753 -0.30899101 0.028072547 -0.012496263
0002b0 67 c0 13 bd 17 d3 4a 3d 5a 20 54 3d f5 7d e1 3c
       -0.03607216 0.049517717 0.051788665 0.027525881
0002c0 4b 9a 4a 3e 7c 61 26 be 4d 3c 7c be b6 27 b6 3d
       0.1978542 -0.16248125 -0.24632378 0.08894293
0002d0 99 f4 f9 3d d1 33 78 be f9 b2 b1 be 87 5b a5 3d
       0.122048564 -0.24238516 -0.34706858 0.08074098
0002e0 ad 40 ae bd a1 23 ae 3c 86 86 2d bd c6 a1 b7 bd
       -0.0850843 0.021257224 -0.04236462 -0.08966403
0002f0 f6 29 cf bd d2 7b 74 bd 31 56 16 3d 5f c5 d2 bc
       -0.10115425 -0.059688397 0.036703292 -0.02572888
000300 1a 2d c8 bd 6e 06 56 be e4 87 45 be 6a ae 16 bd
       -0.097742274 -0.2090089 -0.1929012 -0.036787428
000310 cb 58 68 3d 71 7e e3 bc f4 7a 36 3e 0b d1 de 3d
       0.056725305 -0.027770253 0.1782034 0.108797155
000320 e0 0c 2d bd 10 95 4f bc 7d 4c ef 3a 9f a5 bf 3d
       -0.042248607 -0.012669817 0.0018257048 0.093577616
000330 62 13 25 3e c5 3e 90 3d 5a f4 72 3b ee ed b7 3d
       0.16120675 0.07043222 0.0037071914 0.08980928
000340 73 ab 87 be 55 03 a5 3d 6f 83 25 3c 5c 5a 29 3d
       -0.26497993 0.08057276 0.010102137 0.04134594
000350 cd 07 79 be 12 c7 86 3e 34 16 da 3e 95 a6 c0 3d
       -0.24319382 0.26323754 0.42595065 0.09406773
000360 e6 aa 5c 3d ce 9e aa bd d2 b4 d5 3c 6d 22 a8 bd
       0.05387392 -0.08331071 0.026087198 -0.08209691
000370 02 ab fd 3d fc 8b e2 3c c4 d8 a6 bc 5b 22 0b be
       0.12386133 0.02765464 -0.020367034 -0.13587324
000380 e5 ff 7f 3c ba 8d d6 bd 91 3f 86 be dc b5 94 3e
       0.015624975 -0.10476251 -0.26220372 0.29044998
000390 ac 9d 72 bd 20 36 0d 3e 38 da bc be 7f da f7 bf
       -0.0592324 0.13790178 -0.36885238 -1.9363555
0003a0 74 53 25 3d be b6 12 3d 62 af f9 3d 20 23 b6 3a
       0.04036279 0.035818808 0.12191655 0.0013895966
0003b0 40 71 2a be 20 0b 39 3d e4 25 c7 3d 25 22 d6 bc
       -0.16644764 0.045176625 0.09724024 -0.026139328
0003c0 78 94 4c 3d 5a da 17 3d ea 28 c8 3d 50 13 17 3d
       0.04994628 0.03707347 0.09773429 0.036883652
0003d0 5e 74 73 bc 73 f7 05 bc 7f eb 50 3a 1e 6f 71 3d
       -0.014859287 -0.008176672 0.0007969662 0.05894386
0003e0 80 e8 64 bd a6 52 16 bd 1e 8d 7a 3c c8 41 32 3e
       -0.05588579 -0.036699913 0.015292434 0.17407906
0003f0 6e 8e 1b bd eb 2f 3e 3e 13 b5 fa 3d e5 a3 e0 3d
       -0.03797763 0.18572967 0.122415684 0.109687604

fc1.bias f4 [96]
000000 3f 18 25 3c 43 e0 88 3d 4f 31 31 3e 57 f2 ad 3d
       0.0100765815 0.066833995 0.17303966 0.08493488
000010 a2 4a c2 3c 5e fb f6 3c e7 f5 fe 3c a5 31 14 3b
       0.023717228 0.030149158 0.031123115 0.0022612598
000020 1c 7d 83 bb 52 01 09 be 01 e0 0a be 07 62 51 bd
       -0.004012717 -0.1337941 -0.13562013 -0.051118877
000030 dd 36 d3 bd 2f 60 ff 3d b8 d5 c0 3d cb 69 40 be
       -0.10313199 0.124695174 0.094157636 -0.18790357
000040 ec 3b 23 be 97 6c b2 bd 3d ea c0 bd ba 4e 36 bd
       -0.15940827 -0.08712118 -0.094196774 -0.044508673
000050 8b 0c 07 3d a6 cb 91 3d a7 80 58 bd 8a 40 e5 b9
       0.032970946 0.07118921 -0.052857067 -0.0004372637
000060 00 30 6d be 52 75 0d be ba c3 dd bd 7a 37 0d bd
       -0.23162842 -0.13814285 -0.108283475 -0.034476735
000070 c0 66 bb bd 81 89 ce 3d 5a ee be bd 44 40 62 3d
       -0.091504574 0.100848205 -0.09322806 0.05523707
000080 7a d5 10 be 7c f3 ad bd 14 2a 24 bc c6 52 60 bd
       -0.14143935 -0.084937066 -0.010019798 -0.05476644
000090 ea 46 e3 3c fa 47 66 3d 69 ef cc bc 76 81 97 3d
       0.027743775 0.056220986 -0.025016503 0.073977396
0000a0 65 dd 0d be 34 d3 93 3c 9e 97 a3 3c 3e e6 4f 3c
       -0.13853987 0.018045045 0.019969758 0.012689171
0000b0 d2 96 43 bd 7f 68 93 3c 00 ed 3d bd 3b a7 2d bd
       -0.047751255 0.017994164 -0.0463686 -0.04239581
0000c0 6e 4f 00 be df 47 3e be 5c a1 39 be 84 05 f5 bd
       -0.125303 -0.18582104 -0.1812796 -0.11963943
0000d0 db d9 68 bc a5 9f 1d be ab 84 d4 bc ef 91 25 3e
       -0.014212097 -0.15392931 -0.025942167 0.1616895
0000e0 1e 9d 75 bd 32 6d 06 3e ae 51 2a bc f2 0a c6 be
       -0.05996429 0.13127592 -0.0103954505 -0.38680226
0000f0 ef c9 d1 3d b6 4a 0b 3e 1d c8 6c bd a2 4f 16 3c
       0.10243594 0.13602719 -0.05780803 0.009174259
000100 4d f8 84 bd a1 f5 1e be d6 55 49 3d 44 17 a5 3d
       -0.06492672 -0.15523387 0.049154125 0.08061078
000110 b0 2b 94 3d e4 c6 13 be f6 25 d2 38 6e 55 05 3e
       0.07234895 -0.1443134 0.00010020651 0.1302087
000120 8b 9c 29 be 54 89 b8 3d b1 63 75 bd 77 84 32 3c
       -0.16563623 0.09010568 -0.059909526 0.01089584
000130 fa 3a 20 bc f7 31 8e bb 00 56 d2 bc c7 75 96 bd
       -0.009779686 -0.0043394524 -0.025675774 -0.07346683
000140 d3 d7 1d 3e cf de 1b be 9a e1 31 bc 12 e4 a1 bd
       0.15414362 -0.15221713 -0.01085701 -0.07904829
000150 06 eb d1 bd 22 22 07 3e 46 8c 25 3c 7b 75 a0 bd
       -0.10249905 0.13196614 0.010104245 -0.078349076
000160 c6 46 13 be d5 74 41 be ec be f9 3d 59 60 13 be
       -0.14382467 -0.18892224 0.121946186 -0.14392222
000170 46 e3 a6 3d b0 5b 10 be b8 db 0e 3e 69 cf 5b 3c
       0.08148818 -0.14097476 0.13951004 0.01341615

fc2.weight f4 [64, 96]
000000 c4 a1 3f 3e d2 8e 6a 3d c7 d7 fd 3a bd db e2 bb
       0.18714052 0.05726511 0.0019366675 -0.0069231675
000010 6b d9 bd bc a5 94 c3 bc 86 7a 7c bd 14 bf 1e be
       -0.023174962 -0.02387459 -0.061640285 -0.15502578
000020 84 9e 3b be ba a5 2b 3e 52 37 2e 3e a1 43 83 be
       -0.18322188 0.16762438 0.1701329 -0.25637534
000030 0f a5 98 3c 1e 43 84 3b e0 9c e7 bd 72 1f 0a be
       0.018633394 0.0040363213 -0.113092184 -0.13488558
000040 be 24 56 3e 05 c5 15 be 7a 55 0b be c8 d1 94 3e
       0.20912454 -0.14625938 -0.13606825 0.290663
000050 9d 69 db be 20 30 c9 3d 39 f3 5e be f8 ca 0e 3d
       -0.42854014 0.09823632 -0.2177247 0.034861535
000060 69 86 da bd 0d 3a 6b be 1b 53 b2 3d 36 13 ac be
       -0.10670168 -0.22971363 0.08707257 -0.33608407
000070 32 8e a1 bd b1 04 45 3d a6 4c 2d bd fb fd fb 3c
       -0.0788845 0.048100177 -0.042309426 0.030760756
000080 d1 23 70 3e 90 df 24 3c 48 ed 32 bc dc 90 15 bd
       0.23451163 0.010063067 -0.01092083 -0.0365151
000090 a7 1c ae be 7f fc b3 bd 45 7c 40 3d 02 17 4c be
       -0.34006235 -0.08788394 0.046993513 -0.19930652
0000a0 2e 4b 4d 3c 37 70 27 be a4 45 80 be 2c 99 74 3d
       0.012530131 -0.163514 -0.25053132 0.05971639
0000b0 63 41 6d bd 76 4f a5 3e eb d5 80 3c 51 d9 3d be
       -0.057923686 0.32287186 0.015727004 -0.18539931
0000c0 71 21 75 bd dd 7e 38 bd bf 2b 4f bd 3e 88 ae be
       -0.059846345 -0.04504286 -0.05057883 -0.3408832
0000d0 23 05 1e 3e 3d 01 0e 3e 25 72 8a 3b 82 60 dc 3b
       0.15431647 0.1386766 0.004225033 0.006725372
0000e0 18 4e 48 be a9 78 3e 3d 64 c0 fc bd f6 c2 15 3e
       -0.1956104 0.04650179 -0.12341383 0.14625153
0000f0 80 b5 3f 3e 7a cb 9d bd 00 22 8d be 6d 47 84 3d
       0.1872158 -0.07704826 -0.27565002 0.06458936
000100 97 74 8b 3d da 09 8b ba a6 3c 95 bd ae e0 18 be
       0.06809347 -0.0010607794 -0.072869584 -0.14929458
000110 ec 4f de be 3d 9e 86 bd ac 3d 52 3e c2 6f 6e ba
       -0.4342035 -0.0657315 0.20531338 -0.00090956327
000120 85 e0 8f 3e 18 6b b0 bd 68 ae c6 bd c0 19 23 be
       0.28100982 -0.086141765 -0.09701234 -0.15927792
000130 e1 00 26 be b2 c7 ee 3d 9b c4 16 3d 8f 73 1f be
       -0.16211273 0.116591826 0.03680859 -0.15571426
000140 52 5a 08 3e f4 18 a3 be 35 9a 81 bc e6 e7 f4 3e
       0.13315704 -0.31854975 -0.015820602 0.47833174
000150 1b de ae be 6a 16 49 3e 0c e7 a8 bc f2 de 0e be
       -0.34153828 0.19637457 -0.020617984 -0.13952234
000160 fb 19 17 be 04 61 27 3e a1 e5 0e 3e 87 0e 28 be
       -0.14756005 0.16345602 0.13954784 -0.16411792
000170 ef e1 d5 3d d8 5b 02 be 42 98 d1 3d 84 c9 ec 3d
       0.10443484 -0.12730348 0.10234119 0.115618736
000180 42 32 8f 3d f2 83 c7 be 76 50 22 bd a0 35 08 3d
       0.06992008 -0.38967854 -0.039627515 0.033254266
000190 8d ac 5b bd 7a 56 cd 3c 5b cc c4 bd fa 6e ba bd
       -0.053631354 0.02506565 -0.0960929 -0.09103198
0001a0 f1 16 18 bf c5 e8 b5 3c f6 89 83 bc f9 78 0a be
       -0.59410006 0.02220572 -0.016056996 -0.1352271
0001b0 07 fb 08 bd b9 84 2a 3e 9e 4f 9c bd a9 a0 d8 3d
       -0.033442523 0.16652192 -0.07632373 0.105775185
0001c0 1a 9f 06 3d ec f8 d8 bd 3f ba a5 be 7d c3 62 be
       0.032866575 -0.10594353 -0.32368657 -0.22144885
0001d0 d5 7a bc bd 7f 8b d8 be d9 9e 0b 3b 60 9d c8 bd
       -0.09203116 -0.42293927 0.0021304397 -0.09795642
0001e0 e5 30 86 3d 06 18 0c be 36 8b ae 3c b4 32 23 3e
       0.06552295 -0.13681039 0.021306615 0.1593731
0001f0 9f a8 d7 3d 6a 42 14 3d 95 04 55 3e 35 a7 a4 3e
       0.10530209 0.03619615 0.20802529 0.3215882
000200 d7 e8 0e 3f 58 8a 91 be 6d 85 78 3d 55 aa 49 3e
       0.55824035 -0.2842586 0.06067412 0.19693883
000210 b1 17 5f 3b ee 48 e4 be 9b 00 b5 be e7 39 97 3d
       0.003404122 -0.4458689 -0.35352024 0.07384091
000220 92 7a 9f 3d ca 4c 68 be c4 44 a5 be 5a e0 7a be
       0.0778705 -0.22685543 -0.32279027 -0.24499646
000230 1d d8 68 be 73 bc 74 3c 8a 58 1a 3e a0 55 e5 bd
       -0.2273869 0.014937508 0.15072837 -0.11197972
000240 02 d1 83 be 16 68 7c 3d 56 4d fa 3d eb 6e 92 be
       -0.25745398 0.0616227 0.12221782 -0.2860025
000250 85 92 33 be e7 7a 3d 3d 06 cd 6e 3e 36 23 63 be
       -0.17536362 0.046259787 0.23320398 -0.221814
000260 59 a2 f6 be 7a 2f 26 be af a1 17 3d 64 c7 6d 3d
       -0.48170736 -0.16229048 0.037019428 0.05805148
000270 47 19 38 3c af 0a 6d bd f9 49 5c 3e 46 5a 4c be
       0.011236495 -0.057871517 0.21512593 -0.19956312
000280 7c 21 c2 bc 7a 1a 0d be 74 30 90 3b c0 52 cd 3e
       -0.023697607 -0.13779631 0.0044003073 0.40102196
000290 bf 72 aa 3d 00 13 47 be e5 29 65 bb ba 42 8b bd
       0.08322667 -0.19440842 -0.0034967598 -0.067998365
0002a0 7f cb 60 3d 20 ac bb bd fd a7 3f 3c 64 e1 c4 bd
       0.05488157 -0.091636896 0.011697766 -0.09613302
0002b0 04 f8 c7 3c 81 48 93 3c 06 38 80 bd ba 8f 65 3d
       0.024410255 0.017978908 -0.062606856 0.05604527
0002c0 e5 b6 d3 bc e7 79 d8 bc 6b b1 45 be cf 03 2b be
       -0.025844047 -0.026425315 -0.19305961 -0.16700672
0002d0 8f a6 11 3e 4f 84 65 3e 9e 39 b7 3d 45 85 cb be
       0.14223693 0.22413753 0.089465365 -0.39750114
0002e0 d1 6d b7 bd fa 45 6a bd ea 45 37 3d d0 61 c7 3d
       -0.08956493 -0.05719564 0.04474441 0.09735453
0002f0 6e c9 fd 3d 58 17 58 3e 83 68 7f be 3f 6f 84 bd
       0.12391935 0.21102655 -0.24942212 -0.06466531
000300 3f 24 a7 be a6 b8 25 3c f6 cd b0 3d ca 0f 49 3c
       -0.3264484 0.010114824 0.08633034 0.012271831
000310 da 39 2d be f7 2a 28 be dc 6b 2a bd 72 63 a6 be
       -0.169166 -0.1642264 -0.04160677 -0.32497746
000320 ca a1 38 3e cf b5 7b 3e f4 70 9b 3d 62 5f dd be
       0.18030468 0.24581073 0.075899035 -0.43236834
000330 91 30 35 3e ec 3e 8d be 0d 9a 17 3d 06 2d 2f bc
       0.17694308 -0.27587068 0.03701215 -0.010691887
000340 4d b0 25 be 56 5b e3 bc 0c 3e aa be 74 d4 a3 bc
       -0.16180535 -0.027753513 -0.33250463 -0.019998766
000350 2d 38 4c be 1c 59 64 bd 6b 27 16 3e 43 e4 68 be
       -0.19943304 -0.055749044 0.14663474 -0.22743325
000360 69 ed ac be c4 94 84 be e4 dd f6 bc cd 6d 2b be
       -0.3377488 -0.2589475 -0.030135103 -0.16741104
000370 c9 4d ad 3d 0c 59 2d 3e e0 a4 45 be 26 7d 48 3d
       0.08462102 0.169285 -0.19301176 0.048947476
000380 81 1e 64 3e 78 16 bc 3d 55 85 ce bd ae 8d 3b bb
       0.22277261 0.09183973 -0.10084025 -0.0028618383
000390 78 07 93 3d c0 0c 09 3e 71 d1 96 be 3d 27 a7 3d
       0.07179159 0.1338377 -0.29456666 0.08161781
0003a0 65 74 d5 bd 40 6a f3 3d 3c b2 20 be b6 ac 3d 3d
       -0.10422591 0.118855 -0.15692991 0.046307288
0003b0 fe 8b 1d be e7 c3 1a be e8 c3 0d bf 63 dc b4 be
       -0.15385434 -0.15113793 -0.55377054 -0.35324392
0003c0 35 35 11 be bc 82 eb 3d aa 63 d4 3d c4 81 ac 3e
       -0.14180453 0.11499545 0.10370572 0.33692753
0003d0 76 8b 04 bf d8 cf 72 3e 6b 3e e4 bd 84 5b 50 3e
       -0.517753 0.23712099 -0.11144718 0.2034741
0003e0 7a 63 95 be 82 5d bf bb 78 d1 48 3c df c0 4d be
       -0.29177457 -0.0058400044 0.0122569725 -0.20093106
0003f0 13 63 54 3e d4 78 03 bb ca d5 a9 3d 65 b7 a4 be
       0.20740919 -0.0020061033 0.0829273 -0.3217117

fc2.bias f4 [64]
000000 25 36 6e bd fa f4 ac 3a 3e 87 3d bd 63 f5 39 3b
       -0.058157105 0.0013195567 -0.046271555 0.0028375022
000010 4c 7d 94 3c 8d 79 14 bc 74 f9 96 3d eb 4e ac bd
       0.018126152 -0.009062183 0.07371798 -0.0841349
000020 b4 40 ba bd e1 62 4b be 5d 8e 7d be c9 d6 e4 bd
       -0.090943724 -0.19861938 -0.24761339 -0.111737795
000030 3b b1 98 bd af 72 9e 3e 80 95 5f bd cf ce b9 bc
       -0.07455679 0.30946872 -0.054585934 -0.022681622
000040 f5 b0 16 be 67 e8 03 be e4 3e d0 3e 98 a4 44 bd
       -0.14715941 -0.12881623 0.40672982 -0.04800853
000050 1d ca 19 3c 75 f6 16 be 96 86 48 be 89 76 2b bc
       0.0093865665 -0.14742453 -0.1958259 -0.010465273
000060 be 87 a5 bd 75 49 dc 3d 05 58 f7 bc b2 dd db 3e
       -0.080825314 0.10756198 -0.030193338 0.42942578
000070 92 e1 3b 3c 3f b2 ae bd 0d c5 4b 3d 7c 76 2a be
       0.011467354 -0.085300915 0.04974847 -0.1664676
000080 2b d4 42 bd b1 11 b1 bd 62 46 d4 bd d1 3f 4b be
       -0.04756562 -0.086459525 -0.10364987 -0.19848563
000090 81 b7 0b be 20 4d 03 3e 09 51 24 3e 9b ec 5f bc
       -0.1364422 0.1282239 0.16046537 -0.013667251
0000a0 c9 59 ca bd 8b d8 9a bc ae d4 a2 3d 4b 2e 1d bd
       -0.098804064 -0.018902084 0.07950722 -0.038374227
0000b0 a6 09 1b 3e 31 4d ff bc 65 5b 95 bd 97 80 ae 3d
       0.151404 -0.031164737 -0.07292823 0.0852062
0000c0 39 36 55 be 63 4a 0f be b7 94 2d 3e d9 3f 90 3d
       -0.20821466 -0.1399322 0.16951261 0.07043428
0000d0 d9 38 49 3e 53 d3 25 3e 8d 9a 76 3d 69 d0 82 3e
       0.19650592 0.16193895 0.060205985 0.2554963
0000e0 9d 84 ad 3b 83 1b 5b bd 0d 18 aa bd e0 a8 f1 3d
       0.0052953498 -0.053493034 -0.083053686 0.117997885
0000f0 60 b4 fd bd 92 50 b9 3d a0 a2 b1 bc a8 1e e4 bc
       -0.123879194 0.09048571 -0.021683991 -0.02784665

fc3.weight f4 [4, 64]
000000 fe 19 ba bd a5 da 94 3e e0 b4 38 bd 25 9d b0 3e
       -0.09086989 0.29073063 -0.04509437 0.34494892
000010 7f 1f c0 3d de 65 04 bf 64 31 9a 3a 1a a5 32 3e
       0.093810074 -0.51717937 0.0011763987 0.17445794
000020 c0 3c 30 3e 0a c7 ad 3e 5a 3d 8e be ea cd 50 3e
       0.17210674 0.33940917 -0.27781183 0.2039105
000030 32 e7 9c 3d 61 14 38 3e 16 82 56 3e 01 06 65 3b
       0.076612845 0.17976524 0.20948061 0.0034946206
000040 fc be bf 3e 55 d9 79 3e 8b 98 2a 3e 76 0d 24 bf
       0.37450397 0.24399312 0.16659753 -0.6408304
000050 b7 2d 4b 3e c3 94 16 bf 29 b8 f5 be f1 ce d1 3d
       0.19841658 -0.5882074 -0.47992066 0.10244549
000060 b3 f2 60 be 31 9f 6e 3e f4 64 11 3e 1e e5 3f 3e
       -0.21967582 0.23302914 0.14198667 0.18739745
000070 59 3d 39 bf 02 01 8a bc 38 30 00 3e 62 17 88 3e
       -0.72359234 -0.016846184 0.12518394 0.2658034
000080 37 5e 3b bd 0f 88 ab 3c 09 fb f3 3e c8 7c b8 bc
       -0.045744147 0.020938901 0.47652462 -0.022520438
000090 c4 9f 9b bd 10 72 ed 3d 21 38 2a bd c6 58 b5 3e
       -0.07598832 0.11594021 -0.041557435 0.3541929
0000a0 b1 0c 23 be 08 10 ca 3d e7 e7 34 3e f7 cd 5a 3e
       -0.1592281 0.09866339 0.17666589 0.21367632
0000b0 6a a9 22 be f1 dd d5 3d 44 d0 3d bb 60 57 8c bd
       -0.15884939 0.104427226 -0.0028963247 -0.06852603
0000c0 ca 3a 5d be cf ca 1f be 8b 10 ec 3d 42 34 74 3e
       -0.21604457 -0.15604709 0.11526593 0.2384806
0000d0 0f 00 94 3b 71 64 23 3e bc a0 a7 3c ae d4 49 3d
       0.0045166085 0.15956284 0.020462386 0.049275093
0000e0 29 18 1a bc c3 9d f9 bd 7f ba 73 3e 83 8b 39 3e
       -0.009405174 -0.12188294 0.23801611 0.18119626
0000f0 2c e1 71 be 5f 00 e3 3d 4c 04 49 3e 87 c6 6c be
       -0.23621053 0.11084055 0.19630545 -0.23122607
000100 db 68 92 3c 69 65 90 3e 84 f3 35 be 0e 42 a9 3e
       0.017872265 0.2820237 -0.17768675 0.33058208
000110 fa 79 e2 3d 5e c2 e5 3c 74 60 32 3d 73 69 bb be
       0.110584214 0.028046783 0.043549016 -0.3660389
000120 46 22 50 3e 35 3d 26 3c 98 e8 9f bd 27 a7 e1 3e
       0.20325574 0.010146429 -0.078080356 0.4407284
000130 e0 ab 5c 3d 60 68 b7 3d ad af 28 be 3a e7 1b bd
       0.05387485 0.08955455 -0.16473265 -0.03806231
000140 eb a4 77 3e d6 ba 32 3e 5d c4 45 3e 58 cf a8 3d
       0.24184005 0.17454085 0.19313188 0.08242673
000150 27 1f b3 be 6e 1d 0e 3e 88 f4 02 bc 81 2e 08 3e
       -0.34984705 0.13878414 -0.007992871 0.1329899
000160 12 82 9a bd 7b b8 70 3e ed 14 02 3e 91 49 98 3d
       -0.0754434 0.23507874 0.12703295 0.07435907
000170 26 3c e8 bd de f3 9d 3c c5 01 d7 3d 40 76 da 3d
       -0.113395974 0.019281324 0.104983844 0.10667086
000180 86 ae de 3d 04 9a ec 3c e7 6d 4a 3d f9 78 68 bd
       0.108731315 0.028882034 0.049421217 -0.056755994
000190 50 79 0d bb 7b e0 01 3d 92 35 a3 3d 97 34 a3 3e
       -0.00215872 0.031708222 0.07969202 0.3187606
0001a0 01 a9 ed bd ba 1f 2c be c0 fb 24 3e 83 c7 1a 3e
       -0.116045006 -0.16808978 0.1611166 0.1511517
0001b0 f4 3b d5 3c 02 17 92 3e e9 4f 60 3e 6d 5e 6d 3d
       0.026029564 0.2853318 0.21905483 0.05795138
0001c0 97 3d 94 bd a1 5a e0 bd 12 0a 2f 3d 39 ba 2c 3e
       -0.0723831 -0.10954786 0.042734213 0.16867913
0001d0 8f 9e ce 3c 2e 0b 2a 3e f6 8c 75 3e 02 86 ec 3d
       0.025222091 0.16605827 0.23979554 0.115489975
0001e0 ad 00 26 3e ba fe 9a bb ea c0 ba 3e 2b 66 39 3e
       0.16211195 -0.004730073 0.36475307 0.1810538
0001f0 d9 80 c7 be 7f e3 12 3e 9d 19 e6 3d 1e e3 15 bf
       -0.3896549 0.14344595 0.11235354 -0.5854968
000200 89 b1 ff 3c a1 bc bb 3e 0e c7 90 be 06 ad bd 3e
       0.031212585 0.3666735 -0.28276867 0.3704607
000210 f7 d0 71 3e 07 5d 22 bd 9e 82 11 be 9a a5 9b be
       0.2361487 -0.0396395 -0.14209983 -0.3039978
000220 21 3c 86 3d 15 c4 b1 be 58 6a 06 be 50 24 02 3f
       0.065544374 -0.3471991 -0.13126504 0.5083666
000230 52 ad 1f 3e 54 9e 8d 3d 71 a7 3a bf 08 05 61 3e
       0.1559346 0.06914964 -0.72911745 0.21974576
000240 2e a8 b8 3e 49 ee ab 3e 98 e8 0f 3e a3 0c 8a 3d
       0.3606581 0.33580235 0.14053571 0.067406915
000250 2d cf c0 bd 3b 7e 95 3c 32 5c 90 be 06 18 55 3e
       -0.09414516 0.018248668 -0.2819534 0.20809945
000260 05 25 75 bc 88 ad 0f 3e eb 5e 5c 3d 53 33 2b 3e
       -0.014962439 0.1403104 0.05380146 0.16718797
000270 f9 73 c6 be e1 6e 5b be e0 61 20 3e 6f 90 87 3e
       -0.38760355 -0.21429016 0.15662336 0.26477382
000280 13 8b 43 bd 6a ff 7e be ed c6 0a 3f c4 73 05 be
       -0.047740053 -0.2490212 0.54209787 -0.13032442
000290 60 59 e5 3c 2e 7f 6b be 71 30 02 bf 58 5a 5f 3e
       0.027996719 -0.22997734 -0.50855166 0.21811807
0002a0 41 a5 00 3e 99 57 bb 3e a6 7e 34 3d a9 01 c7 3d
       0.1256304 0.3659027 0.044066094 0.097171135
0002b0 74 a9 4c bf ca 4a 80 3e 23 26 fe 3e 8d ce 5e bd
       -0.79946065 0.2505706 0.4963847 -0.0543962
0002c0 82 66 a1 bd 9a 34 0f be b0 71 96 3d 1d 79 2e 3e
       -0.0788088 -0.1398491 0.07345903 0.17038389
0002d0 f2 e0 2a 3e 58 2b 18 3e 41 f8 82 3d 7c c2 c5 3d
       0.16687372 0.14860284 0.06395007 0.096562356
0002e0 3f a4 5e bf 38 1e f5 3d 59 82 c8 be 99 d0 7a bb
       -0.8696937 0.119686544 -0.39161947 -0.0038271307
0002f0 0a 8e f6 be 2c a5 09 3e 5c e5 20 3e 42 06 0e 3d
       -0.48155242 0.13441914 0.15712494 0.034673937
000300 24 af 0f 3e c7 18 22 3d 4d 3f ee bd a6 b2 8d 3e
       0.14031655 0.03957441 -0.116331674 0.2767536
000310 77 29 24 3d 6e d2 c4 be ee 74 1e be f6 81 8a be
       0.040078606 -0.38441795 -0.15474293 -0.27052277
000320 56 b2 8e 3e 79 d4 aa 3e cd 1d c4 bd f8 b7 a2 bd
       0.27870435 0.3336523 -0.095759965 -0.079452455
000330 3c b3 2e 3e d6 b9 43 bd 47 9a 52 3e 5e 62 34 3e
       0.1706056 -0.04778465 0.20566665 0.17615649
000340 46 6f 95 3e ac 3d 0b be dd 33 20 3e 43 73 e4 3c
       0.29186457 -0.13597745 0.15644784 0.027886992
000350 bf de a8 3e 4a 24 da be 25 55 2a be 1c 1a e6 3e
       0.32982442 -0.4260581 -0.16634043 0.44941795
000360 27 d1 30 3c 5f 2e 85 3e 9c be 4a 3e 4b 6b 1f 3e
       0.010792053 0.2601194 0.19799274 0.15568273
000370 1f 68 17 be f6 86 15 be 0f f7 db 3d 4e 5b dd bd
       -0.14785813 -0.14602265 0.10740482 -0.108084306
000380 fb a6 e1 3e e9 37 c5 3d 67 40 8a 3e 85 7f 01 be
       0.44072708 0.09629805 0.2700226 -0.12646301
000390 60 77 ec bc 2d 33 dc bd d6 ee 4c bf 32 38 b6 3e
       -0.028865516 -0.107519485 -0.80051935 0.3558975
0003a0 f7 65 9b bd 33 a0 51 3c 80 3c 01 3e 15 ce 87 3e
       -0.075878076 0.012794542 0.12620735 0.26524416
0003b0 bb 4c d3 be fa ea ed 3d 8e e7 14 be fe 03 84 be
       -0.41269478 0.11617084 -0.14541456 -0.25784296
0003c0 01 11 86 bd c9 87 20 bd 53 25 16 3e be 85 fb 3d
       -0.06546212 -0.039191995 0.14662676 0.12281369
0003d0 b9 de 5b 3b 11 0e 26 3e 6a 2b 95 3e be 27 a2 3d
       0.00335495 0.16216303 0.29134685 0.079177365
0003e0 39 94 53 3e 07 c9 ee 3a cf 7c d9 3e 9b 08 24 bd
       0.20662011 0.001821787 0.42478034 -0.04004727
0003f0 24 a6 e4 be c1 2a e6 3d 8c 72 9a 3e 1d d3 ac be
       -0.44658005 0.112386234 0.30165517 -0.33754817

fc3.bias f4 [4]
000000 ff d2 8e 3e fa de 91 3e fa 6a 90 3e 58 41 a4 3e
       0.27895352 0.2849043 0.28206617 0.32081103
