vanilla_dqn_weights.pth (torch_old, 41473 bytes, 6 tensors)

fc1.weight f4 [96, 37]
00000000: f438 443e b7ee 41bd fcc3 893d 2fa1 78bd
00000010: cf4d 94be 9180 733e 1bfd e23c 5c1f 0a3d
00000020: 05fc c5bc 81f9 dabe caea d93d de1d f63b
00000030: c135 593d 4a27 833d c1ab eb3d 77d8 043e
00000040: f4d5 d23c 61e7 933d a4ae 5e3b 93c4 2e3d
00000050: 3b6d a8bd 5dfc c43c f5d0 ceba 2c1a 093c
00000060: 7696 b23c 2986 f73d f2a8 0d3e fa33 c23c
00000070: 9219 32be b15f 43bd 64c6 a73e 62de 4a3e
00000080: 3553 3bbe 5314 bdbe 6910 30bf 6ca0 37bd
00000090: d7b7 ac3b 7476 333e f851 02bd 1c3b 54bd
000000a0: 1b73 c63d 3db2 27be 945e 673e 67ee a43c
000000b0: 00de 9abd 1d5b d33c 85f2 76be cc63 473e
000000c0: 282d 06be c861 29bd 5956 99bc 512b cdbe
000000d0: 27c1 c43d 1501 67bb fa01 413e 35fa 293e
000000e0: 8e39 2b3e d81a 58bd e61b d3bd 4381 eb3d
000000f0: 5b2c 453e 95e4 c63d 2252 e23d d68d 403e
00000100: 09fa 00bc d166 603c e53b d4bd 81b2 393e
00000110: b23e 80be e85e babd 4033 aa3c f24d e03c
00000120: aec8 a83d cf91 9f3c dfc4 6e3e 95ec 9bbe
00000130: 5f96 fa3d 078f e4bd 8f2b f4be adee b93d
00000140: 941c 98be bef6 23bd 570d 623d c45f a8be
00000150: 241c 903d e313 1b3d d52c 1aba cdfb c6be
00000160: a1e7 1fbe 1cb6 ad3d f814 743d 7ad5 b4bd
00000170: 4723 8fbd 562c 5ebe 45c2 e6bc 3ff3 15be
00000180: ee13 a43d 06ae f6bd 13aa 2bbe d1dd 04be
00000190: 41f6 2ebc b92a e83d e38b fe3d e09f 6b3e
000001a0: 18d9 183d 8ac4 5cbe 653c 113e 783f edbc
000001b0: 027a 30bd e6ba 123d 5040 c93b a0d7 213e
000001c0: 252d 733d c530 003e 0d4f 573d 6040 5ebd
000001d0: 7aea d43e fdec 19bf f2e7 18bf 3204 2fbf
000001e0: f99f 02c0 8b65 7b3d 19f7 b93d c4d1 4f3d
000001f0: ada5 3f3d 3ecd 123c d690 ff3c baa4 8f3d
00000200: 9f30 1c3d 4bbd 643d 99cf c8ba 0942 e23d
00000210: 3472 1b3e e955 103e 7ee9 2f3e 02b6 e83d
00000220: 79ac 683e 22af 0bbc 85fa 2bbd 0b47 edbd
00000230: 1dcc bfbe db6f a7bc 76c9 29bd e3a3 eb3c
00000240: 9afb d93c fea6 883d 4a13 3a3b b7b3 a43b
00000250: a324 b5bd 04d0 b03d b935 2ebd 8226 8a3e
00000260: c8e9 ac3d 79f8 ccbc 3c56 38bd 1c33 b3be
00000270: 87ab 233c aad8 b8bc fbdf 8c3e d159 1abc
00000280: 1ee5 28bf fb74 33bf 7270 b6bf 09de fb3d
00000290: a6fd a53c 368f 0bbe 48c3 3cbe e0a1 4a3e
000002a0: 0e26 aabe 8a91 72bd a3dd ea3d 4bc4 f3bc
000002b0: 6629 e93d bff2 9dbd 631a 613e ae2e 783e
000002c0: c01b 40bd 3456 ad3d 9073 41bd 46a2 1f3e
000002d0: 294b 91be f5bf b4bb f6c9 07be ddf3 4bbd
000002e0: 7d2a e0bc c8af 16be 8011 953c 73e5 0fbe
000002f0: 6d19 943c d309 f9bd 25c3 debd a2fe ef3d
00000300: c25f b9bd c619 ddbd cdb6 c53d 8a08 84bd
00000310: ddda 523d b70c bdbb 79bc b33d 79e2 a5bd
00000320: 3295 5bbd a9a4 3dbe 5094 e63d 6deb 94bd
00000330: 7c96 393e d08e 663c ecfe 57be a4d5 b33d
00000340: d696 7d3b 053c 443e 59fb 06ba ec80 babd
00000350: 3cc1 0cbe 6a6b 3a3e 3b14 ac3e 3f6e 043e
00000360: f1cb c63c 636f 02bd f764 bcbe bdd3 9dbd
00000370: aec6 d53c a9b4 073d 772f 23be 0db0 e2bc
00000380: 1b1c 8fbd fc68 963c 1b99 bf3d 9c53 80bc
00000390: 2680 5f3e a165 093e dfe5 c33d 336c d03d
000003a0: 73dd b83e 1823 27bf b58e 1bbf 9056 19bf
000003b0: eb4d f7bf 14cb 6bbc 1e12 693d b92a 63bd
000003c0: 063a a63a a864 643d aaaa 303d f977 c23d
000003d0: 4e81 33be 325d 15bd 6880 c5bd 4b6d 69bd
000003e0: ae97 20bd f2f3 ac3c e0cb ea3d da6d 3e3e
000003f0: ff4b 6abd 331d e23c 1a93 ee3d 5baa f03d
0.19162351 -0.047346797 0.06726834 -0.06070059 -0.28965613 0.23779513 0.02770858 0.033721313
-0.024168024 -0.4276848 0.106404856 0.0075108847 0.05302978 0.06403978 0.11507369 0.129732
0.025736786 0.072218664 0.0033978606 0.042667937 -0.08223959 0.024046117 -0.0015778827 0.008368056
0.021800261 0.12086136 0.13833979 0.023706425 -0.17392567 -0.04769868 0.32768548 0.19811395
-0.1829346 -0.3692957 -0.6877504 -0.044830725 0.005270939 0.17525655 -0.031816453 -0.051814184
0.096899234 -0.16376586 0.22594672 0.02013321 -0.075618744 0.025800282 -0.24115951 0.19471663
-0.13103163 -0.041353017 -0.018717932 -0.4007211 0.096071534 -0.0035248448 0.1884841 0.16599353
0.16721174 -0.052759975 -0.103080556 0.11499264 0.19255202 0.09711567 0.11050822 0.18804106
-0.007872113 0.013696388 -0.103629865 0.181345 -0.25047833 -0.09100133 0.020776391 0.027380917
0.082414016 0.019478707 0.23317288 -0.30453935 0.12235712 -0.11160093 -0.47689483 0.09078727
-0.29709303 -0.040030234 0.055188503 -0.32885563 0.070366174 0.037860762 -0.0005881314 -0.38863984
-0.15615703 0.08482 0.05959031 -0.0882978 -0.069891505 -0.216966 -0.028168807 -0.14643572
0.08011614 -0.12044911 -0.16764097 -0.12975241 -0.010678829 0.11336274 0.12429025 0.23010206
0.03731641 -0.21559349 0.14183195 -0.028960928 -0.043085106 0.03582277 0.0061417 0.1580491
0.059369225 0.12518604 0.052565623 -0.05426061 0.4158514 -0.6012724 -0.5972892 -0.68365777
-2.041014 0.061376136 0.09080333 0.050737157 0.04678886 0.008960066 0.031196993 0.07013841
0.038132306 0.055844586 -0.0015320658 0.110477515 0.15180284 0.14095272 0.17178914 0.1136284
0.22722043 -0.008525642 -0.04198696 -0.11585816 -0.37460414 -0.020439079 -0.041451894 0.02876467
0.02660923 0.06672476 0.0028392845 0.0050263065 -0.088448785 0.08633426 -0.042531703 0.26982504
0.08443028 -0.025020825 -0.045004115 -0.3499993 0.009989626 -0.022564251 0.27514634 -0.009420828
-0.65974605 -0.70100373 -1.4253066 0.12298209 0.02026255 -0.1362885 -0.18433869 0.19788313
-0.33232158 -0.059220828 0.11468055 -0.029756686 0.11384849 -0.07712316 0.21982722 0.24236557
-0.046901464 0.084637076 -0.04722935 0.15589246 -0.28377655 -0.005516047 -0.13260636 -0.049793113
-0.02736401 -0.14715493 0.018196821 -0.14052372 0.01807853 -0.12160077 -0.108770646 0.11718489
-0.090514675 -0.107959315 0.09654007 -0.06446941 0.051478256 -0.005769338 0.08776183 -0.08099837
-0.05360908 -0.18519844 0.11258757 -0.072714664 0.18123811 0.014072135 -0.21093339 0.08780983
0.0038694642 0.1916352 -0.0005149148 -0.09106621 -0.13745588 0.18205038 0.33609185 0.1293268
0.024267169 -0.031844508 -0.3679578 -0.077064015 0.026095714 0.033131275 -0.15936075 -0.027671838
-0.069877826 0.018360607 0.093553744 -0.015664868 0.21826228 0.13417675 0.09565329 0.10176887
0.36106452 -0.65287924 -0.6076463 -0.5989771 -1.9320654 -0.014391679 0.056902044 -0.055460665
0.0012682087 0.055760056 0.043131508 0.09495539 -0.17529795 -0.03646583 -0.09643632 -0.056988996
-0.039207153 0.021112416 0.11464667 0.18596593 -0.05720138 0.027601814 0.11649151 0.11751243

fc1.bias f4 [96]
00000000: 1ffb 0f3e 0ad7 f8bc 6cf2 fe3d 8003 5a3e
00000010: 1340 eb3c bcd7 27bc d2f4 6dbc 3144 95bc
00000020: 894f 113e 6740 eebd 11cf 69be baea 45bd
00000030: fa2c 8abd df72 be3d ba57 0d3e 28ac 0dbe
00000040: 989d 92be cc61 ebbd 6711 06be 639d a8bd
00000050: 346a 913d b072 77bd 199a a5bc 8869 24bd
00000060: a104 19be ada9 0fbe 1b88 8bbe 7236 b2bc
00000070: 8f93 39be dbaa 473c 76d5 d2bd 065d 8a3d
00000080: f6b7 0ebe ef4e bfbc 16cc db3b 0bea 033d
00000090: d8f2 493d a427 ed3c 52bf 1abe f018 0e3e
000000a0: e5d4 47be d97d df3c 904c c53d 7b32 a03b
000000b0: b0d2 e4bd 367c bc3c 5e1d 003c 952d 1fbd
000000c0: b95c 5bbd f889 41bc db68 8dbe 3626 c1bd
000000d0: c941 a2bc 4efc f8bd 5970 2abd e58c a53d
000000e0: 7222 87be c0ef d83d 2c5a a7bc 67aa 3fbe
000000f0: d300 413d 8424 233e 2979 1bbe b947 51bd
00000100: 63e6 4cbe 07a6 9ebc 4c28 d5bc 0193 a23d
00000110: b16d f03d 9ce8 b6bd 852d d83c 4985 44bc
00000120: 4718 65bd 38e1 153e da53 8abd 5392 26bc
00000130: 9c32 09bd c73e 20be 6789 703d def4 15be
00000140: 53ba f03d 7f3b debd 53d3 8bbd 8bbd 35be
00000150: a583 6bbd 341a 853d 2972 493d 6a1e 26bd
00000160: 71d5 b6bd 57c3 24be 8ed9 b93d e6b2 0cbe
00000170: 1862 7a3d ada1 37be 177b fb3d be36 54bc
0.14060639 -0.030375976 0.12448582 0.21290398 0.028717076 -0.010244306 -0.014523702 -0.018220993
0.14190497 -0.116333775 -0.22832896 -0.048319556 -0.0674686 0.09299254 0.13802996 -0.13835204
-0.2863586 -0.11493263 -0.13092576 -0.08233144 0.07100335 -0.06041211 -0.020215081 -0.040139705
-0.14943172 -0.1402957 -0.27252278 -0.021754477 -0.18122695 0.012186731 -0.10294621 0.06756024
-0.13937363 -0.023353068 0.0067076785 0.032205623 0.04930386 0.028949566 -0.15112045 0.138767
-0.19514807 0.027281689 0.09633744 0.0048888302 -0.11172998 0.023008447 0.007819502 -0.03886183
-0.053555224 -0.0118126795 -0.2761906 -0.09431116 -0.01980676 -0.12157498 -0.04161105 0.08083514
-0.26393467 0.10592604 -0.02042874 -0.18717347 0.047119927 0.15931898 -0.15182938 -0.05109379
-0.2000976 -0.019366277 -0.026020192 0.07938195 0.11739672 -0.089310855 0.026388893 -0.011994668
-0.055931356 0.14636695 -0.06754275 -0.010166722 -0.03349553 -0.15648948 0.058724787 -0.1464419
0.117542885 -0.10851192 -0.06827416 -0.17748086 -0.057498593 0.064991385 0.049181137 -0.04055635
-0.089274295 -0.16090141 0.090746984 -0.1374012 0.061128706 -0.17932768 0.12279337 -0.012952505

fc2.weight f4 [64, 96]
00000000: a20e 98bc 3b4d b93c 8df2 fc3d fac6 b6be
00000010: 1282 9ebe 7be5 67bd a11d 063e 3e1b 62be
00000020: 521d d4be d2aa 203f be66 1dbd 61b5 2ebd
00000030: 266a 9d3d 1107 9a3d 7e45 c9bd e562 1dbe
00000040: 83a3 813d 9b84 ebbe 94a6 08bd da2f 30be
00000050: c452 9abe c091 0dbf c852 18be 2501 ffbb
00000060: 3a8f 1abf c661 aebd 6b9c acbe 1ddb 9e3e
00000070: 608e 31be 8a8b 00bf af5f 3dbe a8ec 3abd
00000080: 1754 34bd 9660 cebd 6051 8ebd aba3 63be
00000090: 206b 14bf d98a d9be b709 c4be 6b9d f03c
000000a0: eefe 14be 2b53 78be 4040 af3e f64a 03be
000000b0: a34c d1bd 91a6 17be 036b e0bd 722f c9bc
000000c0: fc58 503e 70f0 f4be 3e1b c1be 308f 053e
000000d0: e09b c43e ec25 4d3e ee06 cabd b236 f73d
000000e0: 9081 0a3d 247d c9be 1a1d dbbd 2aff 7fbd
000000f0: 156c be3d 01d7 2f3e 760c 4e3d 4ef3 acbe
00000100: 73e8 663a bfe9 25bd eb5c c63b 1661 2dbd
00000110: ee6a ccbe 9288 42be 4d06 7c3e b0a5 9bbe
00000120: 38c0 1bbe da23 38bf 25e4 17bd d85d 8d3e
00000130: a95b 24bd d13d fcbe e4e1 f1bd e61e 41be
00000140: 0dc4 57be 0fc3 00bf 3e09 6cbe 1b04 87be
00000150: ace2 6bbe 6173 2cbf 53ac 03bf fe11 07be
00000160: 4496 cabe ba96 22bd 65b6 c0bd 0b26 b63d
00000170: 5f21 d03d 5869 093e 8818 3f3d 232d 07be
00000180: a4d5 aa3d dac0 8c3c 2d3a 86bc 3b74 8d3d
00000190: e489 de3d c140 163c 9338 b43e 61ec d7bc
000001a0: f19a 473d d062 c7bd 7a34 903d 82b2 dcbc
000001b0: 835e 8cbd cc69 b7bd 3768 ce3c e304 073d
000001c0: 8567 b23d 642f bd3d 4dfe 0d3e 8a1a 79be
000001d0: 784b 263e b11e 22bd 8424 b03d 5eae de3c
000001e0: 6d35 a4bc e0de 04be 4b78 943d b98f b93e
000001f0: 85c4 0e3d cf58 bcbd 595e af3b 1658 cabc
00000200: 4687 99bc 9672 76be e51c 91bd 8d02 c7bd
00000210: 7f3f bf3d 8694 7fbc db63 76bc 73ae c53d
00000220: c623 693d 5bc1 8bbd abca 58be 1a80 c9bd
00000230: 7211 4cbd 9827 413a 1f14 0bbd b2fd 8f3c
00000240: 0236 593e 8a13 f73d 28b7 fe3d 3eba 083d
00000250: 4cb1 bf3e 24d7 673e 1bea 323d 2c1d 183e
00000260: 33a4 0cbe 7ea4 2fbe 7e78 08bd 3c29 78bd
00000270: dcc1 bbbd 1b4e 1b3d 1993 303d 8493 09be
00000280: b6cc 00be b4f4 b93e a1e6 8c3d 76d6 ca3e
00000290: d77d 65bd 1df9 5abd e58a 4fbe 4303 6fbe
000002a0: 264b 6c3d 6a5f 7bbd 7605 86be cac9 853e
000002b0: 6a83 ba3d 1829 1abe 64bc 7cbe 41dc a6bc
000002c0: 4495 a8bd 7714 f6bc 7dd2 97bd df18 d9bd
000002d0: 3778 1c3e 0c13 4fbd 0d2c 233e 55d8 fc3a
000002e0: 7e64 6c3e 68f5 1b3e d422 21bd f183 fabd
000002f0: f6a0 c73d 8807 2bbe 2612 b2bd 5e90 e53c
00000300: 87d6 d4bc 7851 84be 4351 3a3e 7cdf fbbe
00000310: dfbe 3a3d 43d9 a1bd 6a92 d73d 36fd 773d
00000320: 658d d5be d0a2 bf3d 2ece 4d3e 8cb0 0cbe
00000330: a1a3 413c 24d8 19be c242 25bd 1302 92bd
00000340: 4034 7fbd f863 533e 51bd d9bd 893b 8abc
00000350: e93c 323e d5c7 42be aeb7 913e 108e bfbd
00000360: 9bca 4ebe 5992 fbbd 5651 8a3e c0d1 4c3d
00000370: 2d20 fbbd fb83 01bd 2154 463d 0e39 dfbd
00000380: 2179 7a3d df70 edbc f3ad bbbe ae10 aebe
00000390: 39f1 36be d776 8bbe 94db 5cbe c7c2 b83e
000003a0: f3f7 773e f653 3dbe c902 a3be 63e7 dbbd
000003b0: f158 89be b285 e23d 48e1 0bbe d7f2 09be
000003c0: 4539 2bbe 91f1 77bc ec59 8a3e a72d 0fbf
000003d0: 2148 a4bb 5731 4ebe 1cd5 92be 66a5 71be
000003e0: c54b 4abe 48fc cebd 65c6 e4bd 3d3d 4c3e
000003f0: 401e 4e3d 9184 ff3b 4ef7 bc3c a8ba 23bd
-0.018561665 0.022619834 0.123509504 -0.35698682 -0.3095861 -0.056615334 0.1309724 -0.22080705
-0.4142862 0.6276065 -0.03842806 -0.042653445 0.07686262 0.07520879 -0.09827708 -0.15369757
0.063300155 -0.45999607 -0.033361986 -0.17205754 -0.3014127 -0.5530052 -0.14875329 -0.007782119
-0.60374796 -0.085147426 -0.33713087 0.31026545 -0.17339468 -0.5021292 -0.18493532 -0.04563585
-0.044025507 -0.10077016 -0.06949115 -0.22230403 -0.5797596 -0.42488745 -0.38288662 0.029371938
-0.14550373 -0.24250476 0.34228706 -0.12821564 -0.102196954 -0.14809634 -0.10957911 -0.024558757
0.20346445 -0.4783969 -0.37716097 0.13042903 0.38400173 0.20033997 -0.09864603 0.12070979
0.033814967 -0.39353287 -0.1069891 -0.062499203 0.09297959 0.17171861 0.050304852 -0.33779377
0.00088084413 -0.04050612 0.006053557 -0.042328916 -0.3992533 -0.1899741 0.24611779 -0.30399847
-0.15210044 -0.71929705 -0.03708281 0.2761066 -0.040126476 -0.49265912 -0.11810663 -0.18859443
-0.21070881 -0.50297636 -0.230504 -0.2637032 -0.23035687 -0.67363554 -0.5143482 -0.13190457
-0.3956777 -0.039694525 -0.09409789 0.08893975 0.10162615 0.13419092 0.046654254 -0.13200812
0.0834153 0.017181803 -0.016385162 0.06906935 0.10866144 0.009170712 0.35199413 -0.026357831
0.048731748 -0.09735644 0.07041259 -0.026940588 -0.06853964 -0.08955726 0.025196178 0.032963645
0.08711151 0.09237555 0.1386654 -0.2432653 0.16239727 -0.03958005 0.08600715 0.027182754
-0.020045007 -0.12975645 0.072495066 0.36242464 0.034855384 -0.091966264 0.0053518233 -0.024700206
-0.018741261 -0.24067149 -0.07085589 -0.097172834 0.09338283 -0.015599376 -0.015038456 0.09652414
0.05691888 -0.06823989 -0.21171062 -0.098388866 -0.049821325 0.00073682657 -0.033954736 0.017577026
0.21212009 0.12064274 0.12437278 0.03338074 0.37439954 0.22640663 0.04368029 0.14854878
-0.13734512 -0.17152593 -0.033318035 -0.0605862 -0.09167835 0.037916284 0.043109033 -0.13435179
-0.12578091 0.36319506 0.068799265 0.39616746 -0.056028213 -0.05346023 -0.20267828 -0.23341088
0.057688855 -0.06137029 -0.2617604 0.26130515 0.091070965 -0.15054739 -0.2468124 -0.020368697
-0.08231595 -0.030039055 -0.07413194 -0.10600447 0.15280233 -0.050555274 0.15934773 0.0019290546
0.2308521 0.15230334 -0.039339855 -0.12232197 0.09747498 -0.16702092 -0.08694868 0.028022941
-0.0259812 -0.25843406 0.18195061 -0.49193943 0.045592185 -0.079027675 0.10525973 0.060544215
-0.41709438 0.09357226 0.20098183 -0.13739222 0.011818797 -0.15023857 -0.04034687 -0.07129302
-0.06230569 0.20643604 -0.10631812 -0.016874092 0.17406048 -0.19021542 0.2846045 -0.09353268
-0.20194475 -0.12283773 0.2701518 0.05000472 -0.122619964 -0.031620007 0.048420075 -0.10899554
0.061150674 -0.028984485 -0.3665615 -0.339971 -0.17865457 -0.27239105 -0.21568137 0.36086103
0.24215679 -0.1848906 -0.31838062 -0.10737493 -0.2682567 0.110606566 -0.13660157 -0.13471542
-0.16721065 -0.0151332775 0.2702173 -0.55929035 -0.0050134812 -0.20136009 -0.28678215 -0.23598251
-0.19755466 -0.101067126 -0.11170653 0.19945236 0.050321817 0.0077977856 0.023067143 -0.03997293

fc2.bias f4 [64]
00000000: 9afb 32bc 179d 9fbc d49b 59bd c5ad 38bd
00000010: 0703 8e3e 90f8 37bd 888f f23b 9b58 b9bd
00000020: 030a f6bd 3117 53bd 5b24 81be 8c98 12bd
00000030: a1a8 a2bd d673 f13d a2e8 37be 005e 9ebd
00000040: 450a d7bd da2b f0bd 7f9c ba3e f537 3d3e
00000050: 11c6 3e3d 853b 0bbe c266 e9bc f1e7 38bd
00000060: e445 29bd e14f 893e 8f2f 27be 50a5 d63e
00000070: ed71 1dbe 4974 26be 48e4 e8bc 5916 063c
00000080: 185c d9bd 7326 0dbd 78f7 83be 188c 50bd
00000090: c72a babd 6bc4 a1ba 0bf4 60bb 64a8 433d
000000a0: f6d0 b6bd b503 07be 7424 8c3e d319 1fbc
000000b0: 655c 7d3c df19 c73c 348f 28be bdff bfbd
000000c0: ffa2 32be 3524 d4bd dd34 7ebd d64c 263e
000000d0: af5e 113e a6f0 9b3d 2538 2bbc 6062 853e
000000e0: 2314 02be f736 e7bc fb61 00be bdb6 8bbd
000000f0: 10fc 95bd ce1a 5cbd 065d ccbd 83a9 06be
-0.010924244 -0.019484086 -0.053127125 -0.045087595 0.27736685 -0.044914782 0.007402364 -0.09050103
-0.12013628 -0.05153579 -0.2522305 -0.03579001 -0.0794232 0.11789672 -0.17959836 -0.07732773
-0.10500006 -0.11727114 0.36447522 0.18478377 0.04657561 -0.13596924 -0.028491382 -0.04514307
-0.04132642 0.26818755 -0.16326736 0.41922998 -0.1537549 -0.16255297 -0.028429165 0.008184039
-0.106132686 -0.034460496 -0.2577474 -0.050914854 -0.090901904 -0.0012341862 -0.0034325148 0.04776801
-0.08926575 -0.13185008 0.27371562 -0.009710747 0.015463923 0.024304328 -0.16460878 -0.0937495
-0.1744499 -0.103584684 -0.062062133 0.16240248 0.14196275 0.076142594 -0.010450398 0.26051617
-0.12702994 -0.028224451 -0.12537377 -0.06821964 -0.07323468 -0.0537365 -0.0997868 -0.13150601

fc3.weight f4 [4, 64]
00000000: cc33 863d d682 a53d 3766 9b3b 6112 f23e
00000010: 93cf cc3d d8f9 acbe bb37 8a3c 65a8 313d
00000020: 8771 b63c 17da 3b3e 3a5c d1bd 36d0 433e
00000030: 8643 a6bc 80d2 d83d 55d6 113e e22e 093e
00000040: 8bfd 45bc 0f37 2f3e dfb1 0b3e c801 c7bc
00000050: 58d1 783d d6b7 9c3e 230f 963d 3564 043e
00000060: 696d abbe 1b33 933d ddc4 8bbd 913d 2d3e
00000070: 69ed efbe 6e48 1ebd ce2d 3e3e 48bb 1b3e
00000080: cd92 d63e c842 f93c 03cf 3b3d 8383 453e
00000090: 24d9 47bd 74ba 963c 3707 c2bc 9be2 8e3e
000000a0: ac8d 16bf ee18 3f3e 6845 b53d 437c adbd
000000b0: be5e b53d 018e 333e 78a2 733d 2684 3abf
000000c0: a6be 9bbd ff40 803e 5a75 ad3d de00 d83d
000000d0: 76a7 f93d 4879 063e 54cb 643d dc4f 963d
000000e0: 03da 2c3f a002 c93e 1b8c b1bd 618f ee3d
000000f0: 4832 03be 7d33 203e 4545 a1be c031 62be
00000100: 1854 2d3f 0588 303e 52ab 08bf eb3e 5d3e
00000110: 69b3 083e 0bf4 d73d cb30 033e 2f00 9bbe
00000120: f015 323e 9a88 a938 f703 693c 739f 5b3e
00000130: 202c 473d 3570 ae3d 79e6 4d3f e1ee b43d
00000140: 9643 43bf 4eed cd3e acd5 e63d c16b 963d
00000150: 9f98 2dbd ea5d 913e 07f2 b73e 3f76 a53e
00000160: 5b5e 57be aa51 e13d 588e b03e 6d79 353e
00000170: c3be 81be 4850 8ebd d7bc f53d 13f4 c23d
00000180: 77a1 923e 8ad2 afbe 624c a83d e644 243d
00000190: d731 8a3c 611b 85be 8222 b2b8 c14d 713e
000001a0: ac54 2b3e f6d0 3d3e 7635 0abc 780e 6ebe
000001b0: 853e 9e3e b825 a13e 952e f53d 8733 84be
000001c0: 3f04 a1bd 35b1 cc3e b075 f73d 3c32 c33d
000001d0: 9e49 ac3c e3d8 0c3e d890 463d 6b24 833d
000001e0: 42fa d93e 7d15 943e 3bd1 0abe 5748 093f
000001f0: 7b91 f1be fca1 393e ab88 81be f829 59bd
00000200: d126 01bf 0891 493e f98d b7be f8d2 463e
00000210: 1ea8 a83d 7572 233d 7a88 05bf 771e 1dbf
00000220: 9d09 f23c cb11 84be 229e 10be 8db3 7d3e
00000230: 20f6 213e 0d2d bebd 4b33 413d aa9e 3c3e
00000240: 69d2 8dbe 7260 b33e 0164 f53d 4732 0e3e
00000250: 7478 80bd 6c0d d33e e8c2 9abe 638c b1bc
00000260: a01e 03be ad4b 4fbd abf8 d9be d49c 263e
00000270: d9f2 fdbd 7525 a6be 8315 bd3d 3ff5 293e
00000280: d540 823e a59e a0be 3fe8 ec3e d2f3 0dbf
00000290: 99d5 833e 6d0c 803e 1e15 28bf 0e26 893d
000002a0: e79c 243e 552d 773e 4170 023e f453 d3be
000002b0: 321d 893e 22e6 093f a2da 893e 0b38 a3be
000002c0: 2b1a 77be ae02 4bbe e812 113e f49e 2e3e
000002d0: 0f48 c43d 1efd 7a3d 4f94 38bd d6bd a23d
000002e0: 6690 733e 8b6e 443e b799 1cbe 88ba b8be
000002f0: 1dee 893e b279 383d 1a64 813e e3e2 bc3e
00000300: 6985 493d 3fdb 033e d43e 393d aacb ea3d
00000310: af5d 4b3d 03fa a9bb ebc1 83be 5de2 52be
00000320: fa25 28be 8f30 7c3e 4614 babc 3e3f 1f3e
00000330: d4bb 37be 4d70 b0bd 004a cdbd 06ce 813e
00000340: 2dbe 88be 2f76 cebd 7fa4 0c3e b393 f23d
00000350: 538d 343e 289b 92be 79ac 013e e0a8 903e
00000360: 93ac 323e a10d b23d cffa 2d3e dbd5 ff3d
00000370: 1649 bebe c185 90be f22f 263e 351e 5e3c
00000380: 344f 7d3e 482b 6c3e 8941 323d 5b8f febe
00000390: cccc ea3d 21a9 183e 6e06 36be a515 463d
000003a0: bee5 e03c d29c c93e c09e 213e 71d7 88be
000003b0: 71bd 52be 4032 4a3e b66c 043f cc78 0fbf
000003c0: 3444 4cbe c8fc 133f 5f5e 0f3f 91f0 ff3d
000003d0: 6876 b8bd 4866 403e fef8 fd3d 7f3c 963b
000003e0: f733 dc3e 0621 2d3e 1faf 5cbd 9a2c f33d
000003f0: 6628 06be 5e89 4c3e 11fa e43d b3e3 24be
0.06552848 0.080815956 0.0047424096 0.47279647 0.10000529 -0.33784366 0.016872277 0.043373484
0.02227093 0.18344913 -0.10222669 0.19122395 -0.02029587 0.10587025 0.14241917 0.1339679
-0.012084375 0.17110847 0.13642071 -0.024292842 0.06074652 0.30609006 0.07327106 0.12928851
-0.3348191 0.07187482 -0.06824658 0.16918017 -0.46860817 -0.038643293 0.1857216 0.15208161
0.41908875 0.030427352 0.04585172 0.19288449 -0.048791066 0.018399455 -0.02368508 0.2790726
-0.58809924 0.18661854 0.08851129 -0.08470967 0.08855961 0.17534639 0.059481114 -0.7285789
-0.07604723 0.25049588 0.08469649 0.105470404 0.12190144 0.13132203 0.05585797 0.07339451
0.6752016 0.39259815 -0.08669301 0.11648441 -0.1281215 0.15644641 -0.3149816 -0.2208929
0.6770644 0.17239387 -0.53386414 0.21606033 0.1334969 0.105445944 0.12811582 -0.30273578
0.17391181 8.083992e-05 0.014222137 0.21447544 0.048626065 0.085174955 0.804298 0.08834625
-0.76275 0.40220112 0.112712234 0.07344771 -0.04238188 0.28391963 0.3592684 0.32316777
-0.21032088 0.11001904 0.344836 0.17722102 -0.25340852 -0.06948906 0.11998909 0.0951921
0.28638813 -0.34340316 0.08217694 0.04010477 0.016869469 -0.2599745 -8.494129e-05 0.23564817
0.16731519 0.18536744 -0.008435598 -0.23247707 0.30907074 0.3147409 0.119717754 -0.25820562
-0.07862138 0.39978948 0.12082994 0.09531066 0.021031197 0.1375461 0.048477978 0.064034306
0.42573744 0.28922644 -0.13556378 0.53626007 -0.47181305 0.18128198 -0.25299582 -0.05301854
-0.50449854 0.19684231 -0.35850504 0.19416416 0.08235191 0.039904077 -0.5216137 -0.6137461
0.0295456 -0.25794825 -0.14122823 0.24775524 0.15816545 -0.092859365 0.047168057 0.184199
-0.27699593 0.3503452 0.11981965 0.13886367 -0.062729746 0.41221178 -0.30226827 -0.021673387
-0.12804651 -0.05060928 -0.4257253 0.16270763 -0.12399835 -0.32450452 0.09232619 0.1659746
0.25440088 -0.31371036 0.4627094 -0.55450165 0.257489 0.2500948 -0.6565722 0.066967115
0.16075478 0.24138387 0.12738134 -0.4127499 0.26780087 0.5386678 0.26924616 -0.31878695
-0.24131076 -0.19825241 0.14167368 0.17052823 0.095840566 0.061276548 -0.045063313 0.079463646
0.23785552 0.19182794 -0.15293013 -0.36079812 0.2693948 0.045037933 0.25271684 0.3689185
0.049199495 0.12876604 0.045225933 0.11464627 0.04964989 -0.0051872744 -0.25733885 -0.20594163
-0.16420737 0.24627899 -0.022714745 0.15551469 -0.17942744 -0.0861517 -0.1002388 0.25352496
-0.26707593 -0.100811355 0.13734625 0.11844578 0.17632036 -0.28634 0.1266345 0.2825384
0.17448644 0.08694006 0.16990207 0.124919616 -0.37165135 -0.28227046 0.16229227 0.013557007
0.24737245 0.23063385 0.04351953 -0.49718747 0.11464843 0.14908268 -0.1777589 0.048360486
0.0274533 0.39377457 0.15783215 -0.2672687 -0.20580079 0.19745731 0.5172838 -0.56043696
-0.19947892 0.5780759 0.56003374 0.12497056 -0.09006959 0.18789017 0.12401007 0.0045848484
0.43008396 0.16907129 -0.053877946 0.118737414 -0.13101348 0.19974276 0.11180509 -0.16102485

fc3.bias f4 [4]
00000000: 63d0 9c3e 4a54 8d3e fdd0 8a3e 0969 9e3e
0.30627736 0.2760337 0.2711257 0.3093951
